android_model.tflite (tflite, 3068 bytes, 7 tensors)

sequential_6/dense_26/BiasAdd/ReadVariableOp f4 [6]
00000000: 0000 0000 7d4d e23d a3e9 843e dd27 b03e
00000010: 862e 183f 2c57 f43e
0.0 0.11049936 0.259595 0.34405413 0.5944599 0.47722757

sequential_6/dense_25/BiasAdd/ReadVariableOp f4 [6]
00000000: 519f d93e 21d3 a33e 6574 d5bd b35d 0c3f
00000010: c1c8 f83e 52b2 bcbe
0.4250436 0.31997016 -0.10422591 0.54830474 0.48590663 -0.36854798

sequential_6/dense_24/BiasAdd/ReadVariableOp f4 [6]
00000000: 4987 e0bd f4f2 653e c6b5 a63e 566b ebbd
00000010: 14d3 0ebf 670d c9be
-0.109633036 0.2245596 0.32560557 -0.11495082 -0.5579083 -0.39268038

sequential_6/dense_24/MatMul f4 [6, 6]
00000000: bd29 80bd 3ba4 303f dee4 04c0 6cdc db3e
00000010: 521f cc3e bb61 673e e9b9 893e 7853 3abf
00000020: 97df ab3e d727 273f 9224 d83e bbb1 ef3e
00000030: 06c3 373e af0d 03be 6f13 e5be 8ea4 82bf
00000040: 8a53 823e 9721 2d3f c1ab f93c 312b cd3e
00000050: bedc 4f3d 3ae6 0f3f 43bf 8ebe 08e8 313f
00000060: 3c9f 20be 5d1e d03e 098e 69bd 7223 3a3f
00000070: 8864 a9be 6cd4 31bf 6c6c f23e 4d1c 1d3f
00000080: 986a 073f 32c7 843c dbde 923e 8247 113d
-0.06257961 0.69000596 -2.076469 0.42941606 0.39867646 0.22595875 0.2689965 -0.72783613
0.33569023 0.65295166 0.422154 0.46815285 0.1794549 -0.12798189 -0.4474139 -1.0206468
0.2545436 0.6762938 0.030477406 0.40072015 0.050747626 0.5621067 -0.27880296 0.69494677
-0.15685743 0.40648165 -0.05702022 0.72710335 -0.33084512 -0.69464755 0.47348344 0.6137131
0.52897024 0.016208265 0.2868565 0.035468586

sequential_6/dense_25/MatMul f4 [6, 6]
00000000: 0d12 45bf 066b 183f 0d73 7d3e 4336 0a3e
00000010: a1b4 0cbf 2749 50bf f1c6 16bf 817d 99be
00000020: 8f55 5a3e 2e56 573c 2f37 03bf 5bfc f93e
00000030: 6835 afbe 8bdd 113f b1a2 0e3f 27cb 0f3f
00000040: c1df ae3f 6980 28bd 0503 2c3f a710 56bd
00000050: f9c5 4dbf 6b3a 1a3f 2682 3fbf d864 c63d
00000060: 394b 323f d593 1ebf 9ce7 673f 33d4 88bf
00000070: a884 c43d 48ff f4bd 2372 1abd 7ef3 7abe
00000080: 6688 093d 775d 173f 7d6e 9f3f 71a4 6f3f
-0.7698067 0.59538305 0.2475092 0.13497262 -0.5496312 -0.8136162 -0.5889731 -0.29978564
0.213217 0.013143105 -0.5125608 0.48825344 -0.34220433 0.5697867 0.55717 0.5616936
1.3662034 -0.041138086 0.6719211 -0.052261975 -0.8038021 0.6024539 -0.74807966 0.09687203
0.6964603 -0.61944324 0.9058778 -1.0689758 0.09595615 -0.119627535 -0.037706506 -0.24506947
0.033577345 0.5912699 1.2455593 0.9361029

sequential_6/dense_26/MatMul f4 [6, 6]
00000000: 6d73 02bf 988a 84bd 2552 18bf ac87 b6be
00000010: 88b2 0bbf a4dc 6b3e 1434 8abc 5dc8 8f3d
00000020: dcba f0bd 90ee 65bf bb77 803f cb99 67be
00000030: 448b 133e 4570 4fbf 3e8a 09bf 7565 363f
00000040: 6c71 bbbf 0f70 2fbe 7686 b23f 2957 b6be
00000050: cb4f f53e 2d00 ffbe 0788 6d3f ee18 89bf
00000060: 26ce 103f f1f1 b33e 2de4 b2be d412 0b3f
00000070: 417f 973f 10ab 71bf cc5c 053f cb50 76bf
00000080: da17 1abf 446a 2c3f 64f5 cdbf 3a21 44be
-0.50957376 -0.06471747 -0.5950034 -0.35650384 -0.5456929 0.23033386 -0.016870536 0.07020638
-0.117543906 -0.8981714 1.0036539 -0.22617261 0.14408594 -0.81030685 -0.53726566 0.7124856
-1.4643989 -0.1713259 1.3947284 -0.35613373 0.4791244 -0.49804822 0.92785686 -1.0710733
0.5656456 0.35145524 -0.3493971 0.54325604 1.183571 -0.94401646 0.5209472 -0.9621703
-0.60192645 0.6734965 -1.6090512 -0.191533

sequential_6/dense_27/MatMul f4 [1, 6]
00000000: 1aaa a6be 6bcb 833f ca8a a53f 5b60 bc3f
00000010: 925e c83f 57e8 d33f
-0.32551652 1.0296453 1.293298 1.4716905 1.565386 1.655528
