converted_model.tflite (tflite, 3140 bytes, 7 tensors)

sequential_6/dense_26/BiasAdd/ReadVariableOp f4 [6]
0.44321814 1.4606942 1.3063838 1.2839645 -0.11437612 1.2929218
00000000: 7ded e23e 07f8 ba3f 9637 a73f f358 a43f
00000010: 073e eabd 767e a53f

sequential_6/dense_25/BiasAdd/ReadVariableOp f4 [6]
1.6194949 1.4705416 1.6612073 1.263076 1.5817959 1.3199133
00000000: 9c4b cf3f b53a bc3f 71a2 d43f 79ac a13f
00000010: 4a78 ca3f ebf2 a83f

sequential_6/dense_24/BiasAdd/ReadVariableOp f4 [6]
0.0 1.8229823 0.0 1.5865303 1.740562 1.7624977
00000000: 0000 0000 7c57 e93f 0000 0000 6d13 cb3f
00000010: bcca de3f 8699 e13f

sequential_6/dense_24/MatMul f4 [6, 9]
-0.25624716 -0.40197116 -0.5412281 -0.078842044 -0.369784 -0.6264191 -0.08401084 -0.39366812
-0.46461844 2.0332012 0.9451432 1.843367 1.1116531 1.955106 2.263492 1.6532652
2.3635707 1.5684596 -0.025153875 -0.5549499 -0.3434826 -0.6007173 -0.40901527 -0.39341733
-0.37371898 -0.13766265 -0.3536161 1.8699218 1.5257497 1.4108204 1.1170616 1.236529
1.9457757 1.5426198 2.0884855 1.2865484 1.8525578 1.789151 1.466779 1.0862026
1.477614 1.7612045 0.96248114 2.1117468 1.1315105 1.4801664 1.6099155 1.5535623
1.9621141 1.1146 1.2432133 0.87351036 1.7780573 1.9319137
00000000: d432 83be 2acf cdbe ed8d 0abf f077 a1bd
00000010: 5454 bdbe 015d 20bf e00d acbd de8e c9be
00000020: 78e2 edbe f81f 0240 e8f4 713f 73f3 eb3f
00000030: a64a 8e3f ea40 fa3f 0edd 1040 329e d33f
00000040: be44 1740 49c3 c83f 800f cebc 3211 0ebf
00000050: f4dc afbe 9cc8 19bf 736a d1be ff6d c9be
00000060: 1858 bfbe 70f7 0cbe 2b0d b5be 9959 ef3f
00000070: c44b c33f c395 b43f e0fb 8e3f 9546 9e3f
00000080: 2e0f f93f 9174 c53f bfa9 0540 9ead a43f
00000090: 9d20 ed3f e602 e53f 6abf bb3f b008 8b3f
000000a0: 7522 bd3f 266f e13f 2a65 763f dc26 0740
000000b0: 56d5 903f 1876 bd3f b611 ce3f 21db c63f
000000c0: 8e26 fb3f 36ab 8e3f 9d21 9f3f 609e 5f3f
000000d0: 6297 e33f f348 f73f

sequential_6/dense_25/MatMul f4 [6, 6]
0.6667208 2.2921576 -0.16869396 2.1600745 1.885187 1.1386324 -0.059181273 2.1442668
0.5258307 2.107513 2.317915 2.180619 0.16759372 2.1010203 0.027951956 1.7663423
1.2756901 1.7166141 -0.53267294 0.8555391 0.67806 2.1192393 1.5362172 1.817681
-0.5112937 2.3357255 0.100578725 1.2654707 1.9589236 1.9330919 -0.4440779 1.8715773
-0.00040358305 1.232886 1.614975 1.9450294
00000000: 37ae 2a3f b6b2 1240 1cbe 2cbe a93e 0a40
00000010: cf4d f13f b5be 913f 1068 72bd ab3b 0940
00000020: d79c 063f 7ee1 0640 b858 1440 438f 0b40
00000030: b09d 2b3e 1e77 0640 80fb e43c 8117 e23f
00000040: d049 a33f 03ba db3f 415d 08bf 9c04 5b3f
00000050: 5795 2d3f 9ea1 0740 c4a2 c43f c5a9 e83f
00000060: 25e4 02bf 877c 1540 38fc cd3d f2fa a13f
00000070: 02be fa3f 8e6f f73f 2e5e e3be d88f ef3f
00000080: 0098 d3b9 35cf 9d3f 80b7 ce3f b9f6 f83f

sequential_6/dense_26/MatMul f4 [6, 6]
0.61331844 0.13270739 0.49757487 0.88060343 1.1342573 0.59327865 2.3952467 2.1939886
2.5150297 1.5830024 2.1888242 1.5046065 1.717275 2.017486 2.6227214 2.0486565
2.3731194 1.6565866 2.0783217 1.9741765 1.3173237 1.6814824 1.800642 2.2817285
-0.047707245 0.154961 -0.33776528 0.32767308 -0.41034403 0.2867899 1.2285413 1.729255
2.041937 1.1860602 2.4353201 1.7437379
00000000: 7002 1d3f 72e4 073e 22c2 fe3e 3a6f 613f
00000010: 582f 913f 1ce1 173f b94b 1940 4f6a 0c40
00000020: 3ff6 2040 d39f ca3f b215 0c40 f296 c03f
00000030: abcf db3f 7e1e 0140 abda 2740 301d 0340
00000040: 30e1 1740 080b d43f 3903 0540 d1b1 fc3f
00000050: 109e a83f d13a d73f 707b e63f d707 1240
00000060: ac68 43bd 19ae 1e3e 92ef acbe c4c4 a73e
00000070: 9d18 d2be 20d6 923e d740 9d3f 3a58 dd3f
00000080: 19af 0240 d2d0 973f 49dc 1b40 ce32 df3f

sequential_6/dense_27/MatMul f4 [1, 6]
-0.6199397 -1.8634859 -2.0757387 -2.132616 0.7651294 -2.2924907
00000000: 5eb4 1ebf b586 eebf e7d8 04c0 c87c 08c0
00000010: 85df 433f 2bb8 12c0
